time_series/models/bilstm.pth (torch, 230536 bytes, 9 tensors)

weight_ih_l0 f4 [128, 187]
000000 83 13 be 3c bc 9a 13 3f 68 9e d5 bf cf ba c3 bf
       0.023202663 0.5765798 -1.6688967 -1.5291384
000010 70 e5 20 c0 80 f4 58 c0 af f3 26 bf 31 db e6 3e
       -2.5140038 -3.389923 -0.6521558 0.45089105
000020 10 75 ab 3e 40 0e 0b 3f 37 21 33 3f 3d ed 7a 3f
       0.3348775 0.5431862 0.69972557 0.98018247
000030 c0 39 5d 3f c9 54 43 3f 7e 0b 88 3f 40 1f 3d 3f
       0.86416245 0.76301247 1.0628507 0.7387581
000040 34 88 0b 3f 77 3a f8 3e 5f 86 9f 3e ce 4c 99 3e
       0.54504704 0.48482105 0.31157205 0.2994141
000050 30 62 f6 3d 71 e4 ae 3d 84 39 cd bc ec d7 e9 3d
       0.120304465 0.085396655 -0.02505184 0.11418137
000060 5a 6f 0b be 1c 1f 7f be 63 1e 66 be 73 6a 4c be
       -0.13616696 -0.24914211 -0.22472529 -0.19962482
000070 4c 7a 97 bd 6d 2e 06 3d fd c8 8e 3d c7 5e 8b bc
       -0.07396373 0.03275912 0.06971929 -0.017012967
000080 e7 8e a8 3e 04 2e e1 3e 2e 58 24 3f 08 c4 7b 3f
       0.32921526 0.4398042 0.6419705 0.98345995
000090 b9 6a 73 3f dd 93 53 3f bf ca 51 3f 2a ed 35 3f
       0.9508472 0.82647496 0.8194999 0.7106501
0000a0 d2 95 23 3e 4e f6 41 3d 1e 1a c5 bd 00 ea 11 3d
       0.1597512 0.047354035 -0.09624122 0.03562355
0000b0 a9 68 c4 3d c7 d1 32 bd dc 26 f5 bd db 60 0d 3e
       0.09590275 -0.04365709 -0.119703025 0.13806479
0000c0 9c a3 98 bd 16 ef 21 bd 02 a1 82 be f0 52 44 bd
       -0.07453081 -0.03953465 -0.25513464 -0.047930658
0000d0 0c a5 0e 3e 2d 47 5a 3e e9 e1 57 3c 3d ac 6b be
       0.13930148 0.21316214 0.01317642 -0.23014922
0000e0 ce 3f 90 bc 3e 86 3e 3d 08 e5 2d 3e d8 e4 f3 3c
       -0.01760855 0.046514742 0.169819 0.029772207
0000f0 a6 88 bc 3e 1d 08 97 3e ea 5b 9f 3e c2 e2 a3 3d
       0.36823004 0.29498377 0.31124812 0.08002235
000100 2e 70 cd 3e 63 4b c0 3e 11 d8 ec 3e d4 62 9b 3e
       0.4012465 0.37557516 0.46258596 0.30348837
000110 d1 84 c0 3e cf 95 51 3e be 68 b3 3e 96 c5 ac 3e
       0.3760133 0.20467304 0.3504085 0.33744496
000120 44 dc 21 3f 71 57 01 3f c8 ee 10 3f c3 d7 06 3f
       0.63226724 0.5052405 0.5661435 0.52672976
000130 81 b2 05 3f 6f ce 0b 3f 44 d2 05 3f 0f 3e 1a 3f
       0.522255 0.5461187 0.52273965 0.60250944
000140 85 67 24 3f 22 5d 10 3f 82 9b 14 3f ac 00 07 3f
       0.6422046 0.5639211 0.58049786 0.527354
000150 c7 c2 d5 3e 9a 8b d4 3e 50 dc e4 3e 3d 55 10 3f
       0.41750166 0.41512758 0.44699335 0.56380063
000160 03 7e ed 3e 88 92 27 3f 67 6d 39 3f 26 78 0d 3f
       0.46385202 0.65457964 0.7243256 0.55261457
000170 7f d7 d9 3d 0d 60 99 be 0d d4 e6 bd 3b b2 df 3e
       0.10636806 -0.29956093 -0.11270914 0.43690667
000180 b6 c6 fc 3e 6c c4 23 3f 4d d2 1b 3f 38 d6 38 3f
       0.49370354 0.6397159 0.6086777 0.7220187
000190 d4 a9 7d 3f 80 ad 63 3f 47 0e 82 3f 22 d0 35 3f
       0.9908726 0.88936615 1.0160607 0.7102071
0001a0 a1 c6 0f 3f d5 0e cf 3e 79 2e ca 3e 9b 2e dc 3e
       0.5616246 0.40441003 0.3948858 0.43004307
0001b0 d0 24 48 3e 07 ef 62 bd 85 8e 13 be 02 09 bd be
       0.19545293 -0.055403735 -0.14409836 -0.36920935
0001c0 83 6e 96 be 40 77 03 bf fc 1b 3a bf 61 b3 95 bf
       -0.2938119 -0.51353836 -0.7269895 -1.1695367
0001d0 2a ab 41 bf a3 20 f9 be 6e ab 9e be 0e e7 65 bf
       -0.756518 -0.48657712 -0.30990165 -0.89805686
0001e0 52 b6 87 bf f2 78 87 bf 97 ba 7e bf 1a 93 63 bf
       -1.0602515 -1.0583785 -0.99503464 -0.88896334
0001f0 f3 00 96 bf b0 a1 a3 bf 18 61 5f bf c8 b1 f4 be
       -1.171904 -1.2783718 -0.8725753 -0.47791886
000200 dd e1 ff bc 7c d2 04 bf 1e 8e 78 bf fe 65 6d bf
       -0.03123563 -0.51883674 -0.97091854 -0.9273375
000210 04 a3 ee be 30 1b 05 bf f0 84 31 bf 5b 37 61 be
       -0.46608746 -0.5199461 -0.6934347 -0.21993773
000220 16 c6 90 bd b7 08 35 3d 00 c9 1a bf 5c 8e 71 bd
       -0.07069032 0.044197764 -0.6046295 -0.058973655
000230 c2 24 0a bf a8 d9 4b bf 43 52 35 bf 7b 2a 7f be
       -0.5396234 -0.7962899 -0.70828646 -0.24918549
000240 df f6 f5 be 5b 7c c7 bf 31 cd 48 bf 86 c0 d2 bf
       -0.4803991 -1.5584825 -0.784381 -1.6465003
000250 2d 5b f7 bf 0d 07 06 c0 7e 95 5a bf 32 51 20 c0
       -1.93247 -2.0941803 -0.85384357 -2.5049558
000260 35 d9 55 bf 63 cb bf bf e1 4a 31 bf cd f3 ea be
       -0.83534557 -1.4983944 -0.6925488 -0.4588913
000270 93 d7 c9 be c6 ae 17 be 26 0d 7e bd d1 5c ce bf
       -0.39422283 -0.14812765 -0.062024258 -1.6122075
000280 84 37 66 bf 7f 00 f0 be 4c fa 7d bf e5 3c 48 bd
       -0.8992846 -0.46875378 -0.9921005 -0.0488862
000290 fd 72 84 be e1 c9 0d bf 7f 87 4b be 3a d0 f4 3d
       -0.2586898 -0.5538617 -0.19875906 0.119537786
0002a0 33 0d eb be 31 bb b5 be 17 e4 b3 3c 98 06 0f 3f
       -0.45908508 -0.35494378 0.021959348 0.55869436
0002b0 29 97 06 bf 13 38 91 be 37 93 c4 be a1 ca 9f 3e
       -0.525744 -0.28363094 -0.38393566 0.3120928
0002c0 1e 82 1c 3e 85 9c b4 3e 2b fc b7 3f 05 82 74 3f
       0.15284011 0.35275665 1.437383 0.95510894
0002d0 49 66 8c 3f 49 a0 83 3f 72 a4 26 3f 6e 1c 69 3e
       1.0968715 1.028329 0.65094674 0.22764751
0002e0 7e 94 be bc 70 b1 46 3c 24 1f 0f be a0 af 30 3e
       -0.023264166 0.012127265 -0.13976723 0.17254496
0002f0 6b b3 fb 3e 9c bc e2 bf 9a 85 cd bf 6f 72 55 3f
       0.49160323 -1.7713809 -1.6056397 0.83377737
000300 8c 4e 8e 3f 17 4b de 3f 3f 5f 0e 40 3b 7f 91 3f
       1.1117721 1.7366666 2.2245634 1.1366953
000310 51 cc 6b 3f 0d ca 70 3f 63 a3 83 3f 5c 29 2b 3f
       0.9210864 0.94058305 1.0284237 0.66859984
000320 85 3a 30 3f 24 ba 51 3f 4c d2 5b 3f 99 37 3f 3f
       0.68839294 0.81924653 0.8586776 0.7469421
000330 98 34 63 3f 27 93 82 3f c1 e1 80 3f 9b 64 9a 3f
       0.88752127 1.0201157 1.0068895 1.2061952
000340 cf 34 8d 3f ef 82 89 3f 05 ad a9 3f 82 7b a1 3f
       1.1031741 1.0743083 1.3255926 1.2615817
000350 4a 8c a2 3f a4 ab 4d 3f 84 ff 2b 3f ca ac fd 3e
       1.2699063 0.8034003 0.6718676 0.4954589
000360 e9 b3 07 3f c6 45 ba 3e 87 04 9d 3e 42 6a 37 3e
       0.53008896 0.36381358 0.30667517 0.17911628
000370 00 31 4a be b8 f4 de be c4 c3 28 bf 4c 72 73 bf
       -0.19745255 -0.4354608 -0.65923715 -0.9509628
000380 11 58 61 bf a0 bd 3e bf 9d 7a 44 bf 30 44 10 bf
       -0.88025004 -0.74508095 -0.76749593 -0.56354046
000390 b4 ad 13 bf b0 bb 9e be 70 8a 56 be b2 0d 66 3c
       -0.57686925 -0.3100257 -0.20951247 0.014041351
0003a0 ed 1e 65 3e 41 da ce 3e ca e2 58 3f 03 a2 80 3f
       0.22375078 0.4040089 0.8472105 1.0049442
0003b0 66 bb 33 3f a1 82 5f 3f 1d d8 af 3e ca 8b 9e 3e
       0.7020782 0.873087 0.3434457 0.30966026
0003c0 be 3e 02 3f ca de 38 3e ed 18 29 bd f0 9f 22 3e
       0.50876987 0.18053737 -0.041283537 0.15881324
0003d0 2c c8 fa bd 09 4e 2d 3e 2f 49 10 be 5b 66 8e 3e
       -0.12245211 0.169243 -0.14090417 0.27812466
0003e0 59 6b a4 3e a7 16 d7 3e d8 aa 09 3f 9b dd 01 3f
       0.3211315 0.4200947 0.5377631 0.5072877
0003f0 11 05 2b 3f ff fa 24 3f 49 e0 f6 3e 16 5e 15 3f
       0.66804606 0.6444549 0.4821799 0.5834669

weight_hh_l0 f4 [128, 32]
000000 1a 87 a2 bc 3b 24 c3 3d 7c 51 99 bd dc 8a bc 3c
       -0.019839812 0.09528395 -0.07486245 0.023015432
000010 b7 e9 15 be 9a 35 f4 3d 89 7e 0a be c7 40 54 3c
       -0.14639936 0.11924286 -0.13524832 0.012954897
000020 7c c2 d2 bd 3c d8 ce bc 30 c0 14 be da 15 02 be
       -0.10291001 -0.025249593 -0.14526439 -0.12703648
000030 ec 50 df bd c2 15 fe 3d 06 85 8e bd f8 60 b3 3d
       -0.109041065 0.12406494 -0.06958966 0.0875873
000040 a2 fe 7e 3d c5 5e be bd 28 d9 d6 bd bc cb 20 bd
       0.062254556 -0.092954196 -0.10490638 -0.039256796
000050 3b b3 f2 bc 04 d8 ad 3d 5a 33 b9 3d 80 af 5d 3c
       -0.02962648 0.08488467 0.09042998 0.013530612
000060 e4 b1 f7 3d 57 92 1f 3e 4d 00 8b 3d 39 d4 3f bd
       0.12094477 0.15583168 0.06787167 -0.04683325
000070 86 53 0b bc 5d 61 d1 3d e3 e0 02 3e 67 7d 0e 3e
       -0.0085038 0.10223649 0.127811 0.13915025
000080 27 51 84 3d 76 1d 26 bd 55 38 c3 3d 52 60 ff 3d
       0.06460791 -0.04055544 0.09532229 0.124695435
000090 3f 1d 8c bd 90 95 ad 3d a8 c6 15 be 35 f3 66 bd
       -0.06841516 0.084757924 -0.14626563 -0.056384284
0000a0 24 8f d1 bc c9 d5 0d 3e 60 52 d9 bd 83 cd be 3d
       -0.02558095 0.13851084 -0.10611415 0.09316542
0000b0 bb c6 24 3d c0 1f 03 be 74 03 7e 3d a1 56 f3 3d
       0.040228587 -0.1280508 0.062015012 0.118817575
0000c0 45 82 04 be 96 27 c5 ba 2e 6f 0d be 86 50 11 be
       -0.12940319 -0.0015041705 -0.13811943 -0.14190874
0000d0 52 14 bc 3d 42 7b 8c 3b bc fd 44 bd c6 0f 13 3c
       0.09183563 0.0042871544 -0.048093542 0.008975929
0000e0 c3 12 cd 3c 95 e7 01 3c 77 1f 8a bc ad dd 93 bd
       0.02503336 0.007928749 -0.016860707 -0.07220016
0000f0 da 84 3a 3d ab 08 55 3d ee 37 2f 3d e6 83 e1 3d
       0.045536853 0.05201022 0.042777948 0.11011486
000100 88 24 18 bb ab 7c d9 bd 19 2c eb bd de 80 f8 bd
       -0.0023215134 -0.10619482 -0.1148302 -0.121339545
000110 b0 be 17 bc 05 04 8d 3d a3 e0 b7 3d eb fe f5 bd
       -0.009261772 0.06885532 0.08978393 -0.12011512
000120 31 5e b1 3c c8 7d 30 bd c7 44 cf ba 4d 4e c5 bd
       0.02165136 -0.043088704 -0.0015813344 -0.09634075
000130 22 3d 1f 3e 9c 21 5a 3d 11 eb 16 3e 4e cd fb 3b
       0.15550664 0.05325471 0.14738108 0.0076843863
000140 df a7 e4 3d 94 d5 d8 3d 8e 22 04 bd 41 74 cb 3d
       0.11164831 0.10587612 -0.032259516 0.09934283
000150 52 48 fd 3d b9 e7 9c 3d ae df d4 bd 9b a8 1c 3e
       0.1236731 0.07661385 -0.10394226 0.15298693
000160 d3 d8 d1 bd 74 6f eb 3d 8e 40 d1 3d bf 3a 19 3e
       -0.10246434 0.11495867 0.10217391 0.14963816
000170 c4 be 6f bd cc 71 16 3d b8 64 ff 3d 43 91 41 bc
       -0.058531538 0.03672962 0.124703825 -0.011814418
000180 c5 61 0d 3e 64 57 05 be 5b bb dd bd f3 72 b4 3d
       0.13806827 -0.13021618 -0.10826751 0.08810987
000190 98 df 4f 3d a9 52 19 3e c4 0b 09 3e dc c5 30 3d
       0.050750345 0.14972939 0.13383394 0.043157443
0001a0 69 00 b6 3d ff a8 b7 3d fd 81 ef bd 2a 8b c2 bd
       0.08886797 0.0896778 -0.11694715 -0.094992
0001b0 ff 36 20 bb 2b 36 ad bc 75 ea 07 be a9 0c f8 3d
       -0.0024446843 -0.021143993 -0.13273032 0.1211179
0001c0 8a 29 e3 3d fe 7b e3 bc 8f 03 10 3e 46 72 14 be
       0.11091907 -0.027769085 0.14063857 -0.14496717
0001d0 1b 60 85 3d f1 0f 2c 3d 93 81 3d bd 2e ce 75 3d
       0.06512471 0.04200739 -0.04626615 0.06001108
0001e0 35 71 14 3e 20 52 b5 3d b0 f1 19 3e 54 1c 31 3d
       0.1449631 0.08853555 0.15033603 0.043239906
0001f0 25 28 e7 bd 61 c7 09 be 28 1e 2e bd d1 25 ce 3d
       -0.11286954 -0.13454963 -0.042509228 0.10065807
000200 cf 5a b3 bd 98 43 8f 3d c0 be fb 3d 20 99 6c 3d
       -0.08757555 0.06995314 0.12292242 0.05776322
000210 19 43 39 3d 1d e7 d6 bd 25 46 a9 3c 02 33 f3 3d
       0.045230005 -0.104933 0.02066333 0.11874963
000220 47 bd d2 bd e0 69 0f 3b 4f 31 2b 3d f2 64 1d 3e
       -0.10290008 0.0021883175 0.04179507 0.15370539
000230 e8 3d f8 bc 04 1f 69 3c 7a 8b 25 3d 35 aa 00 be
       -0.030302957 0.014228586 0.04041622 -0.12564929
000240 c4 2d bb bd c7 2c ab 3d 40 ac 11 be 9d 50 01 3e
       -0.091395885 0.0835815 -0.14225864 0.12628408
000250 44 12 42 bd d0 8d b3 bd 02 93 d4 3d 93 b4 11 3e
       -0.0473807 -0.08767283 0.10379602 0.1422904
000260 11 65 f4 3d 7a 47 b3 bd d0 ff 02 bd c6 87 ba ba
       0.119333394 -0.087538674 -0.031982243 -0.0014231137
000270 3d dd b7 3c a4 f9 56 3d 2b 1f bf 3d fc df f8 bc
       0.022444362 0.05248417 0.09332117 -0.030380242
000280 53 22 4a 3d 73 c8 4d 3d 99 8f 1b 3e 7c 47 0a be
       0.04934914 0.05023999 0.15191497 -0.13503832
000290 fd 52 09 be 2f 77 02 be db 3b 9b bd c3 a4 14 be
       -0.13410564 -0.12740777 -0.07579776 -0.14515977
0002a0 7c 21 f4 bc 3c 4d 8d bd 6f 61 09 3e 68 1e ee bd
       -0.029801123 -0.06899497 0.13416074 -0.11626893
0002b0 18 62 17 3d 2d f5 c3 3d 73 99 86 bd 62 93 d9 3d
       0.036958784 0.09568248 -0.06572237 0.10623814
0002c0 6e 88 49 3d eb f5 28 bd c7 20 07 3e 1d 4e 0c be
       0.049202375 -0.04125015 0.13196097 -0.13701673
0002d0 d4 b5 a4 3d 2a 35 b9 bd da dd ca bc 99 03 ac bd
       0.080424935 -0.09043343 -0.02476399 -0.08399124
0002e0 12 44 b4 bc 24 2b 41 bd 6f 7a 7f 3d c0 95 b5 bd
       -0.022005115 -0.047160283 0.06237262 -0.08866453
0002f0 36 5c 0c be 5f 3b d8 3d d6 90 1c be 9b be 89 bd
       -0.1370705 0.10558199 -0.15289626 -0.06725808
000300 94 ab 0b be cb 1a 40 bd d5 86 a5 3d c5 72 b7 bd
       -0.1363967 -0.04690055 0.08082358 -0.089574374
000310 9c 0e 11 3e 9b 91 0a be d0 83 fc bd e5 48 83 bb
       0.1416573 -0.13532107 -0.12329829 -0.0040064924
000320 ed d2 94 3d 6f 68 50 3d 38 b2 0c 3d 8b c9 06 3e
       0.072667934 0.050880846 0.03434965 0.1316282
000330 ee 19 b5 bd c0 44 27 3d 6a 39 0c be f1 00 1d 3e
       -0.08842836 0.04083705 -0.13693777 0.1533239
000340 04 9d 31 bd e2 c6 1c 3e af 2c b7 3d 86 55 94 bd
       -0.043362632 0.15310243 0.089440696 -0.07242875
000350 11 e8 81 3c 8c 86 ad 3d ec 27 1c bd 1c 6a d8 bd
       0.015857728 0.084729284 -0.03812401 -0.10567114
000360 af 92 da 3d 3d 43 27 bd 54 aa ec bb c0 56 11 be
       0.10672509 -0.040835608 -0.007222453 -0.14193249
000370 af 85 97 3c 00 21 02 3e 11 29 ad 3d e0 6e 16 bd
       0.018496362 0.12707901 0.084550984 -0.036726832
000380 33 ab a4 bd 98 15 4c 3d d5 b8 1c be b4 26 e7 3d
       -0.08040466 0.04982528 -0.15304883 0.11286679
000390 72 3c 81 3d 79 18 c1 3d 2f 7d 9d bd 1b 86 e1 bd
       0.06310357 0.09428496 -0.076898925 -0.11011907
0003a0 04 24 f4 3d 94 e7 d5 3d 7a f1 89 3c 70 f8 05 bd
       0.11920932 0.10444561 0.016838778 -0.03270763
0003b0 e8 79 3d 3c 5b be f1 bd 2d 13 d4 bd 83 cf 71 bd
       0.011564709 -0.118038855 -0.1035522 -0.05903579
0003c0 27 60 77 bd 68 c1 14 be 92 eb 13 3e 8f 93 5b 3d
       -0.060394432 -0.14526904 0.14445332 0.05360752
0003d0 c3 48 e3 bc 52 27 f9 bd 02 61 8b 3d 12 00 ae 3d
       -0.027744656 -0.12165703 0.06805612 0.08496107
0003e0 aa 32 c8 bd 47 bc 0e 3e d1 4b 93 3d 6b 28 f4 3d
       -0.097752884 0.1393901 0.07192195 0.119217716
0003f0 75 65 08 be c5 54 cb bd 40 ea 11 bd db b3 df bd
       -0.13319953 -0.09928278 -0.03562379 -0.109229766

bias_ih_l0 f4 [128]
000000 69 36 27 bc df a2 41 3e bd cf 5a 3f 34 04 9f bc
       -0.0102058435 0.18909787 0.85473233 -0.019411184
000010 ba 60 8b 3c 99 95 2c 3e f7 28 2e be db e5 84 be
       0.017013896 0.16853942 -0.17007814 -0.25956616
000020 f5 4e 11 3f e7 b9 bb 3e 9f 72 38 3f cb 4f 6e 3f
       0.56761104 0.3666527 0.720499 0.93090504
000030 41 4a 90 bd ad ae 42 bc 3f 5e 5e 3f 53 d5 0c 3f
       -0.07045413 -0.011882466 0.8686256 0.55013007
000040 f2 23 56 3e ba dd f6 3d 74 8d 89 3f 01 1b 42 3f
       0.2091215 0.1205401 1.0746293 0.75822455
000050 a9 8e 2d 3f d4 c8 da 3d 20 3e a6 3e cf 26 9f 3e
       0.6779581 0.10682836 0.32469273 0.31084296
000060 04 fb 05 3f e7 cd a1 bc 0a b5 48 be b9 4f e6 3e
       0.52336144 -0.019751502 -0.19600311 0.449827
000070 12 05 28 bf 6e 00 fe 3d bd da d0 bd 7e 48 3c 3f
       -0.65632737 0.12402426 -0.10197971 0.73548114
000080 32 70 ad 3c 79 8c 94 3b 59 d4 c3 bd 06 71 0e bb
       0.021171663 0.004533347 -0.095619865 -0.0021734848
000090 86 41 97 3d b7 36 fb bd 66 7c 3c bd 8e 07 4a bd
       0.073855445 -0.122662954 -0.046017073 -0.04932361
0000a0 35 71 17 3e 03 c3 18 3c 7c 58 6e 3b b0 02 e0 3d
       0.14789279 0.009323838 0.0036368659 0.109380126
0000b0 b1 28 ba 3d 2e 1b 01 3e e7 92 48 3d 1d 70 e9 bd
       0.090897925 0.12608024 0.048968222 -0.11398337
0000c0 ea 07 3a 3d 15 f6 09 3c ca f3 35 3d 6f 51 f9 bc
       0.045417704 0.008420487 0.04442195 -0.030434338
0000d0 cd e9 c6 ba 9d 3b e0 3d b2 59 3a bd 32 a1 94 bd
       -0.0015175879 0.1094887 -0.045495696 -0.07257308
0000e0 a9 dc 1f bd ba 58 01 be 81 be d3 bd 8e f3 b1 3d
       -0.039028797 -0.12631503 -0.1033907 0.086890325
0000f0 76 4c d6 3d df 1d f8 3d a2 54 57 3d 5c 60 f6 bd
       0.104638025 0.121150725 0.052570947 -0.12030098
000100 9a 6b c4 be f3 dc e1 3e 55 b1 51 3f 3f 38 a2 bd
       -0.38363343 0.44113883 0.8191121 -0.07920884
000110 ae ad 5a 3e f6 81 83 3e 58 77 08 3e 01 5d 7f be
       0.21355316 0.2568509 0.13326776 -0.24937822
000120 c2 b1 0d bf 52 ce c1 3e d0 36 91 bd 09 ac b2 be
       -0.5534936 0.37852722 -0.07090533 -0.34896877
000130 6a c9 ad 3d b9 0d 5f 3e 3c f0 ea 3e d1 aa 0a 3d
       0.08485682 0.21782579 0.4588641 0.03385431
000140 90 5d 96 3e fc cc a9 bc a7 16 3b 3e e7 98 ae 3e
       0.29368258 -0.020727627 0.1827036 0.3410103
000150 87 86 05 bf 9d 52 b7 be b1 05 34 bd 0b 4f 8a 3e
       -0.521584 -0.35805216 -0.04395074 0.2701343
000160 dc f4 01 3e 02 ad 83 bd 55 96 08 bd 57 31 eb 3d
       0.12691063 -0.06429483 -0.033346493 0.1148402
000170 52 23 68 3e 99 a1 8a bd e0 8a 62 be c6 60 56 3e
       0.22669724 -0.067691036 -0.22123289 0.20935354
000180 87 a2 1c 3f f6 ac 14 3e 80 6f bb 3e 88 15 51 bd
       0.611855 0.14519104 0.36608505 -0.051045924
000190 f6 fb 22 be 91 55 c4 bc 8d 0d 8f bc 5f e2 e3 bd
       -0.15916428 -0.023966582 -0.017462516 -0.11127161
0001a0 b1 33 e7 3e d7 8d 6e 3e fe ea 4b bd 8f 97 90 3f
       0.45156625 0.23296295 -0.049784653 1.1296252
0001b0 6c dc 6e be dd a8 03 be 28 b2 47 3f a1 2b fb 3e
       -0.23326272 -0.12857385 0.7800622 0.49056724
0001c0 f3 90 80 bd 0a 65 0f 3e a2 3f 5d 3f 47 46 22 3f
       -0.06277647 0.14003387 0.8642522 0.63388485
0001d0 67 29 55 be 04 53 4a 3e 16 93 d3 3d 48 51 35 bd
       -0.20816575 0.1975823 0.10330789 -0.04426697
0001e0 14 b2 ec be db 74 0b 3e 2d ce b1 be 57 8f f9 3e
       -0.46229613 0.13618796 -0.34727612 0.48742172
0001f0 c5 c3 0d bf 2a 22 58 be 8e 2e e8 3d ee 3f e0 3e
       -0.55376846 -0.21106783 0.113370046 0.43798774

bias_hh_l0 f4 [128]
000000 ba c1 2a be b3 3a a5 3e 21 2e 58 3f 13 0a 07 be
       -0.16675463 0.32271346 0.8444539 -0.13187437
000010 2d ab 20 3d d7 ef 94 bd f0 38 8c be 4a 95 47 be
       0.039225746 -0.07272308 -0.2738719 -0.19490543
000020 37 c5 d7 3e b4 6b e2 3e 79 93 0a 3f f1 52 38 3f
       0.4214265 0.44222796 0.54131275 0.7200156
000030 a0 f2 8d be 92 04 f0 bd af 2e 3c 3f ec b3 ea 3e
       -0.2772417 -0.11719622 0.73508734 0.45840394
000040 dc f5 74 3e 54 45 22 3d c5 e1 69 3f 4e 19 42 3f
       0.23921913 0.039616898 0.9136012 0.7581986
000050 34 76 30 3f db da 66 3d c0 25 51 3e c3 a0 7e 3e
       0.68930364 0.05636106 0.20424557 0.24866013
000060 08 3b 00 3f d1 bb a6 3d b5 14 a7 be 19 08 12 3f
       0.50090075 0.08141292 -0.32632986 0.57043606
000070 97 ab 11 bf 97 14 6e bd 8c 1d 35 3d 63 37 48 3f
       -0.5690245 -0.058125105 0.04421763 0.78209513
000080 80 cd 01 be f3 cd 6f bd 0f 70 a1 bd d8 b7 c8 3d
       -0.12676048 -0.058546018 -0.078827016 0.098006904
000090 8a 4e cd bc 05 80 12 3d ed a0 ec bd 8e 7a ec bc
       -0.025061864 0.03576662 -0.11554132 -0.028867032
0000a0 7c ae 8c 3d 71 b8 db 3c 27 4b 46 3c 51 54 c8 3d
       0.06869218 0.026821347 0.012102879 0.09781707
0000b0 d3 58 b5 bd 44 40 e6 bb 61 6d 1f 3e a7 91 d9 bc
       -0.088548325 -0.007026704 0.15569068 -0.02655871
0000c0 46 73 9d bd 1d 22 49 bd 83 a0 09 3d 07 f9 5b 3d
       -0.07688002 -0.0491048 0.03360034 0.053704288
0000d0 69 5f a7 bc 55 59 5c 3b 00 9e f2 3d db da 57 bd
       -0.020431237 0.0033622582 0.11846542 -0.05269895
0000e0 b6 f0 20 3d a9 84 1d 3e 6e 01 e7 3d 81 c3 c5 bd
       0.03929206 0.15382637 0.112795696 -0.0965643
0000f0 fe 2a dc 3d 31 8f 1d bd 9d 0b 5f 3d 27 18 ce bc
       0.107503876 -0.038466636 0.054454435 -0.025158001
000100 b6 07 fa be 1b 18 f7 3e 50 16 5b 3f 1a 80 ae 3d
       -0.48834008 0.4826058 0.8558092 0.08520527
000110 c2 75 1e 3e 40 d6 32 3e 87 9f 81 3d df 1d bb be
       0.15474609 0.17464542 0.063292556 -0.36546227
000120 05 68 0c bf 78 8f dc 3e 2b e9 5d bd 29 57 e5 be
       -0.5484622 0.43078208 -0.054177444 -0.4479306
000130 4f 1f 43 3d dc 8e b9 bc 1b de e9 3e 2a 41 6d bc
       0.04763728 -0.022651128 0.45677266 -0.014480868
000140 77 c8 d9 3e 31 38 a3 bd f9 b8 93 3e fa c0 99 3e
       0.42535755 -0.07969702 0.2885206 0.30030042
000150 f0 8f ca be aa 06 83 be 14 51 26 be 63 22 ad 3e
       -0.3956294 -0.25591022 -0.16241866 0.33815297
000160 4f db 34 3e ea 3e b8 be 5d 5d 91 3d f6 51 3e 3e
       0.17661785 -0.359855 0.07097886 0.18585953
000170 4c a5 10 3e eb e2 0b be e8 5e 60 be f4 21 4b 3e
       0.14125556 -0.13660781 -0.21911204 0.19837171
000180 d6 61 29 3f ed 51 54 3e 32 68 04 3f b1 3c 12 be
       0.6616491 0.20734377 0.5172149 -0.14280964
000190 f7 81 e5 bd 0b e1 49 be 9a 4b 3c be eb 16 cc 3d
       -0.112064295 -0.19714753 -0.18388215 0.09965309
0001a0 e2 d7 08 3f af da 98 3c 28 de a6 3d 1e c9 8e 3f
       0.5345441 0.018658964 0.08147842 1.1155126
0001b0 cb 94 a0 bd 45 ca fb bd b2 95 49 3f 60 a5 d8 3e
       -0.0784088 -0.12294439 0.7874404 0.4231367
0001c0 1d bf 5b be ed 00 0d be c8 d4 62 3f 49 ca 0b 3f
       -0.21459623 -0.13769884 0.8860593 0.5460554
0001d0 7a bd 74 be 5f 5e fe 3d 95 2c 05 be 06 aa ba 3d
       -0.23900405 0.124203436 -0.13005288 0.09114461
0001e0 4a 0c d9 be 50 49 1f be 6f 04 5c be 26 88 2b 3f
       -0.42392188 -0.1555531 -0.21486066 0.6700462
0001f0 1d e4 a8 be 81 d1 ae be b7 ab a6 bd 20 11 c4 3e
       -0.32986537 -0.34144214 -0.08138221 0.38294315

weight_ih_l0 f4 [128, 187]
000000 5c a2 9a bb 3a 91 45 bd 39 b1 86 3e 9b 57 6c 3e
       -0.004719062 -0.048234202 0.26307085 0.23080294
000010 ab e3 2b 3f e1 66 97 bd f1 c9 76 bf 0e 53 11 bf
       0.6714427 -0.073926695 -0.9640189 -0.56767356
000020 f9 5f 0a be 3a 7c 72 bd be 7b 36 3e a0 12 d4 3d
       -0.13513173 -0.059200503 0.17820641 0.10355115
000030 a1 39 2e 3d ea 6d 82 3e 7d f4 e8 3e 5d fc b9 3e
       0.042535428 0.25474483 0.4549903 0.3632535
000040 61 a5 2a 3f 01 47 1e 3f a3 6f 49 3f 88 74 27 3f
       0.666586 0.61827093 0.7868597 0.6541219
000050 c0 9d 2a 3f c8 88 2b 3f 66 61 19 3f 3d bc 45 3f
       0.6664696 0.67005587 0.59914243 0.77240354
000060 f4 76 e8 3e fd 66 d5 3e e7 a8 1b 3f 66 3e 9a 3e
       0.45403254 0.41680136 0.608046 0.3012573
000070 46 df 37 3e 1e 7d 60 3d 9d a2 8e bd 70 a0 6d 3e
       0.17956266 0.05480682 -0.0696461 0.23205733
000080 08 63 12 bd 21 f7 aa 3e 20 47 97 3e 51 8d 20 3f
       -0.035738975 0.3339167 0.29546452 0.6271563
000090 ca 70 63 3f 33 aa 45 3f 89 15 5b 3f f9 54 10 3f
       0.8884398 0.7721283 0.85579735 0.5637966
0000a0 40 eb fd 3e 5c 65 4a 3f 42 0d d8 3e 69 bd 0b 3f
       0.49593544 0.7906091 0.42197615 0.5458589
0000b0 1b 4b b5 3e b5 64 06 3e b7 0e a9 3e ed 18 ea bd
       0.35408863 0.13124354 0.3301904 -0.114305355
0000c0 16 54 a9 be 92 f9 62 be fa ad c2 be 69 8d df be
       -0.33071965 -0.22165516 -0.3802336 -0.43662575
0000d0 16 75 1a bf eb 3c 40 bf 68 c8 48 bf 77 8a 2f bf
       -0.6033491 -0.75092953 -0.78430796 -0.68570656
0000e0 1c 88 bc be 25 b4 20 bf 66 b4 81 be e3 8e d5 be
       -0.36822593 -0.6277488 -0.25332946 -0.41710576
0000f0 23 74 7a be 02 d9 5a be 02 82 81 be 68 d8 cd be
       -0.24458365 -0.21371844 -0.252945 -0.40204167
000100 52 cc 0e bf d6 72 c5 be cb 6d ac be 53 48 99 be
       -0.5578052 -0.38564175 -0.33677515 -0.29937991
000110 dd 2e 2d be 21 50 08 bf 40 ed 43 bf 9a 5c 3c bf
       -0.16912408 -0.53247267 -0.7653389 -0.735788
000120 83 40 fd be 85 0e a9 be b9 50 12 bf 37 92 42 be
       -0.4946328 -0.3301889 -0.57154423 -0.19001089
000130 1c 63 aa be 23 87 8f be 79 58 87 3e 4e 38 f6 3e
       -0.3327874 -0.2803279 0.26434687 0.48089832
000140 c3 f9 08 3f ca 16 2e 3f 3b 24 26 3f 60 bb ea 3e
       0.53506106 0.68003523 0.64899033 0.4584608
000150 63 7e 8a 3e 5f b7 80 3e 8d 6f 06 3e 0c e1 30 be
       0.2704955 0.251399 0.13128491 -0.17273349
000160 f7 2a d3 bd 57 42 f4 bd 73 5d fe bd 64 ea ba 3d
       -0.10310929 -0.11926716 -0.12420168 0.09126738
000170 24 6a 58 bd 9d 5d eb 3d ea cc df 3d 5c f5 1c be
       -0.0528356 0.11492465 0.10927756 -0.15327972
000180 ba 1b a0 bd 8e 9b 88 3c 57 f2 5d bd 08 d0 54 3d
       -0.078177884 0.016675737 -0.05418619 0.051956207
000190 4d 6c cb 3c 7c 94 58 be 53 bf 2a be 05 0b a4 be
       0.024831915 -0.21150392 -0.16674547 -0.32039657
0001a0 92 f0 1c bc 72 45 b2 3d 78 aa 79 3e 4b 43 b6 be
       -0.009578841 0.08704652 0.24381435 -0.35598215
0001b0 8d 29 4b bd 4a 39 4f be 24 6a a9 bc ee 00 b6 be
       -0.049600173 -0.20236698 -0.020680495 -0.35547584
0001c0 43 df 13 bf 0d f4 0d be e2 25 80 be 65 da 30 be
       -0.57762545 -0.13862629 -0.25028902 -0.17270811
0001d0 11 aa 05 bf 30 ec 9e bf c7 b2 60 bf 3d 87 ec bf
       -0.52212626 -1.2415829 -0.8777279 -1.8478771
0001e0 34 f2 f8 bf 94 ec b7 bf 66 f1 87 bf 6e b3 94 bc
       -1.9448915 -1.4369073 -1.0620544 -0.018151965
0001f0 b0 58 31 bf e0 9b 8c bf cb db 48 3f 7e ef d7 be
       -0.6927595 -1.0985069 0.7846038 -0.42174906
000200 b3 11 5a be 17 d5 2e 3d 11 53 8e bf ef 49 0a bf
       -0.21295814 0.042683687 -1.11191 -0.54019064
000210 8b 6a 5a bf 24 40 94 3e ae 63 e1 3e 2f 0f d2 be
       -0.8531882 0.28955185 0.44021362 -0.4102721
000220 c9 18 f0 bc f2 16 e0 3e fd c7 a1 3f 09 94 e2 3e
       -0.029308693 0.43767506 1.2639157 0.44253567
000230 12 74 4a 3d 97 e7 38 3f e1 5b 94 3f 1e bb a7 3f
       0.0494271 0.7222838 1.1590539 1.3103979
000240 ec 26 27 3f 85 15 12 bf 0b dc 80 3e 16 e1 d4 bf
       0.65293765 -0.57064086 0.2516788 -1.6631191
000250 0e 6a f7 be 17 7a 49 bf a5 20 96 bf 1c 94 06 c0
       -0.483231 -0.7870192 -1.1728712 -2.1027899
000260 4f 8f 87 bf 89 74 a9 bf 5f 47 c3 bf 68 1f e6 bf
       -1.0590609 -1.3238689 -1.5256156 -1.7978334
000270 b8 c2 c2 bf 00 66 bc bf ba 1b 1d bf 03 6f b4 bf
       -1.5215673 -1.4718628 -0.6137043 -1.4096378
000280 b0 73 3a bf 70 66 03 bf 61 d9 4d bf 86 b1 4b be
       -0.72832775 -0.5132818 -0.8040982 -0.19891939
000290 ff 2e 78 be 17 c4 07 bf 76 c3 95 bd fa a8 ee 3d
       -0.24236678 -0.53033584 -0.07312672 0.116533235
0002a0 58 d0 f7 be 9c 89 af bd 15 27 da 3e b1 6c 10 3f
       -0.4840114 -0.08571169 0.42607942 0.5641585
0002b0 8f d8 e2 bc 14 b3 e2 3b bf 06 83 be 4f 5d 65 be
       -0.027691154 0.0069183204 -0.25591084 -0.22398876
0002c0 ab 91 d3 be 7f f8 b2 be 75 a7 85 3e 6f f5 c2 3d
       -0.41322073 -0.34955212 0.26104322 0.09519469
0002d0 d6 2a da 3d ae fc cc 3d 51 3f 64 be 94 4f 47 3e
       0.106527016 0.10009132 -0.22289778 0.1946395
0002e0 68 47 12 3f 75 43 bf 3e f0 0a 01 be 11 97 67 3e
       0.5714021 0.37356153 -0.12601829 0.22616221
0002f0 1d 60 a8 be c0 01 15 bf e5 7a bf be 1b 5c af 3e
       -0.3288583 -0.58205795 -0.3739845 0.34249958
000300 08 31 5f 3e 60 86 b6 bc f3 68 73 be 1a ff 6c bd
       0.21796048 -0.022280872 -0.23770504 -0.05786047
000310 94 da 97 be ea b7 4f be ab 86 b7 be 40 0c 7b be
       -0.2965895 -0.20285001 -0.3584493 -0.24516392
000320 08 52 d0 be 41 10 96 be de 85 2c be 84 ac 78 be
       -0.40687585 -0.29309276 -0.16847941 -0.2428456
000330 8d 8a 22 be 24 e0 4f be db 12 94 be 98 3c c4 bd
       -0.15873165 -0.20300347 -0.28920636 -0.0958187
000340 ed 8d 17 be d0 ca 4b bd f8 f1 a7 bd 56 28 a0 3d
       -0.14800234 -0.049753964 -0.08200449 0.078201935
000350 54 3e c7 3d 86 d4 43 3e 1e ea 6b 3d db 26 92 3d
       0.09728685 0.1912404 0.05759632 0.07136317
000360 23 fe 03 3d 6c 89 2c 3e 18 de 30 3e c8 75 86 3e
       0.032224786 0.16849297 0.17272222 0.26261735
000370 3e 44 6d 3e be dc db 3d c1 0a 41 3e 99 ff be 3d
       0.23170564 0.107354626 0.18851759 0.09326095
000380 a1 97 ad 3e 14 94 8b 3c e4 e2 32 3d f4 39 5b be
       0.33904746 0.017038383 0.04367341 -0.21408826
000390 88 5a 6b be f4 e5 d9 bd 99 ff 78 be 7c aa 7a be
       -0.22983754 -0.10639563 -0.24316253 -0.24479097
0003a0 45 19 da bd 87 e2 2b bd e5 d2 06 be a7 b3 46 be
       -0.10649351 -0.04196408 -0.13166387 -0.1940447
0003b0 91 09 91 be d6 86 11 be f6 41 5b be 71 0f 87 be
       -0.2832761 -0.14211592 -0.21411881 -0.26378968
0003c0 fa 24 60 be 2b f5 2d be 58 1b 74 bb 20 00 90 3d
       -0.21889105 -0.16988055 -0.0037247743 0.07031274
0003d0 8e 93 60 3d 9b 81 05 3d 60 3d 01 3d 37 6f c0 3d
       0.05482822 0.032594305 0.031552672 0.093962125
0003e0 71 40 e7 bd a4 b9 d0 3d 76 af ba 3a 0f 9c 12 be
       -0.11291588 0.10191658 0.0014242965 -0.14317344
0003f0 73 75 fa bc 90 7c de bd c8 54 ac 3d 4e de 40 be
       -0.030573582 -0.10863602 0.08414608 -0.18834803

weight_hh_l0 f4 [128, 32]
000000 02 04 03 3e 2f 96 ab bd 94 6d e0 3d 73 54 91 bd
       0.12794498 -0.083782546 0.109584 -0.070961855
000010 40 59 66 bd 4b 16 72 bd 47 02 0b be 85 83 60 3d
       -0.05623746 -0.05910329 -0.13575087 0.054812927
000020 09 5c 00 be 4d 1e 06 3c 67 0c b7 bd bb c0 71 3d
       -0.12535109 0.008185935 -0.089379124 0.059021693
000030 6f cc c2 bd f2 72 9b 3d 2e 68 c7 3c 7e 04 19 be
       -0.09511649 0.075902835 0.024341669 -0.1494312
000040 82 04 31 3d c2 a0 3f 3d a2 c8 b2 3d 05 84 a5 3c
       0.04321719 0.04678417 0.08729674 0.020204553
000050 0a 2c 33 3d 3f 43 3b bc 92 84 2c 3d 7d 80 85 3d
       0.04374317 -0.011429607 0.042118616 0.06518648
000060 73 e0 03 be 5f 2f 9b 3d 4f 64 bf 3c 9c 71 ee bd
       -0.1287859 0.07577395 0.02336326 -0.11642763
000070 1d 28 bc 3d 4d c1 f7 3d b7 a6 7d bd 6a 02 fd bd
       0.091873385 0.12097416 -0.06192657 -0.12353976
000080 b4 9e 04 3d fd f4 2a 3c 6a 12 4c bc fd e4 95 bd
       0.032377914 0.010434386 -0.012455562 -0.07319067
000090 aa 91 16 3e 0d 19 d7 3d 87 dd 01 3e ba ba 1f 3e
       0.14704004 0.10502825 0.12682162 0.15598574
0000a0 b6 03 0f 3e b6 fa 76 bd 12 08 13 3e 56 37 68 bd
       0.1396626 -0.06029769 0.14358547 -0.056693397
0000b0 44 2f 32 3b b1 d4 33 bd c4 b4 f8 bd 14 ac fd 3d
       0.0027188817 -0.04390401 -0.12143853 0.12386337
0000c0 49 37 1a be 70 c2 f1 3b e9 54 a3 bd a0 25 0d 3d
       -0.15060152 0.007377915 -0.0797518 0.03445971
0000d0 53 f1 a7 3c 5d 41 fe bb aa 82 9f bd 24 91 61 bd
       0.020500815 -0.0077592568 -0.07788594 -0.055070058
0000e0 11 5d dc bd 46 87 20 bd 44 53 2e 3d fe 9a 10 3e
       -0.107599385 -0.039191507 0.042559877 0.14121625
0000f0 44 0b 99 bd 13 a1 0f bd c6 d3 1b be b8 89 04 3e
       -0.07472852 -0.03506572 -0.15217504 0.1294316
000100 24 94 7e 3d b9 93 9e bd 34 65 ff 3d 63 6a 8e bd
       0.062152997 -0.077430196 0.12470475 -0.069538854
000110 6c 5d 16 be 61 56 15 3e f1 fe 06 bd b8 d8 ab 3b
       -0.14684075 0.14583732 -0.032957975 0.0052443407
000120 be 6f 0b 3e 43 20 9b bd f6 fc f1 3c 4e dc c8 3d
       0.13616845 -0.07574513 0.029539566 0.09807645
000130 09 d8 c2 3d 98 fd d4 3d 56 1e 0d be bf 6a 56 3d
       0.09513862 0.10399932 -0.13781103 0.052347895
000140 1c 53 46 3b 83 53 21 bd 20 8e 80 3d 10 4b 84 3d
       0.003026194 -0.039386284 0.06277108 0.064596295
000150 bd 3e 67 bd cc 22 88 bc 48 29 6f 3d 39 12 16 be
       -0.056456316 -0.016618155 0.05838898 -0.14655389
000160 43 bc d4 bd 6d cd 1f 3d 48 5f 17 3d 7d 04 89 bc
       -0.103874706 0.03901427 0.0369561 -0.016725773
000170 6d f5 6e bd cf 2a c7 3d a8 00 14 bc 38 8e db bd
       -0.058339525 0.09724962 -0.00903336 -0.107204854
000180 74 38 95 bd 4f e4 03 be ac 32 d6 3d a6 8f d5 3c
       -0.07286158 -0.12880062 0.10458884 0.026069473
000190 c2 21 a9 bc 15 8a 27 3d 9a a1 39 3c a2 d0 f8 3d
       -0.02064598 0.04090317 0.011330033 0.121491686
0001a0 3f a5 96 3c 9a eb 9b 3c 5d 46 9c 3d f3 58 1a 3d
       0.018389342 0.019033242 0.07630608 0.037682485
0001b0 05 7c f5 3d 44 3b 63 3d a6 39 f2 3d 74 18 14 3d
       0.119865455 0.055476442 0.11827402 0.036156133
0001c0 48 d9 84 3d 3f db 18 be 07 a6 17 be a4 d6 14 bc
       0.064867556 -0.14927386 -0.14809428 -0.009084377
0001d0 42 10 b9 bd 81 c3 b3 bd e7 d2 4e 3d c0 0d e1 3d
       -0.09036304 -0.08777524 0.0504941 0.10988951
0001e0 08 a1 12 bc b3 6d 6c bb 45 5f 30 3c de 13 a7 bc
       -0.008949526 -0.0036076128 0.0107649015 -0.020395216
0001f0 5e a3 38 3d 77 50 0f 3e 03 da 17 be 55 c1 bc 3d
       0.045077674 0.13995539 -0.14829259 0.09216563
000200 33 3e 8b bd 80 51 cf 3d 3f 83 d0 3c 21 d6 e1 3d
       -0.06798973 0.10122967 0.025453208 0.1102717
000210 55 37 99 3b 68 56 3d 3c df d9 e1 3d ba 03 17 bd
       0.0046757855 0.011556245 0.11027884 -0.03686879
000220 5f ad 16 be 90 79 d1 bc c0 fa 63 3d d9 69 7a b7
       -0.14714573 -0.02557066 0.055659056 -1.4925806e-05
000230 30 2b 6a bd f1 9d 1c be fd 97 0d 3e 22 fa d3 bd
       -0.057170093 -0.15294625 0.1382751 -0.103504434
000240 b7 60 95 3c be 6d ae bc e3 ba 3a 3c df 40 ae 3c
       0.018234594 -0.021292564 0.011397096 0.021271167
000250 b4 e9 03 3d 1e b1 f9 bd 98 1e 6a bd 97 71 d5 bd
       0.0322053 -0.121919855 -0.057158083 -0.10422056
000260 6c 9a 9d bd 29 42 ee bd 34 b6 09 bb 80 64 59 bd
       -0.07695469 -0.11633713 -0.0021013143 -0.05307436
000270 6e 53 c6 3d b6 ad d4 bd df 79 df 3c 7d c4 15 be
       0.09683882 -0.10384695 0.027279792 -0.14625736
000280 19 13 45 3d 3d a9 dc bd 65 da a4 3d d4 26 7e bd
       0.048113916 -0.10774467 0.08049468 -0.062048748
000290 35 51 12 3d df 6e 9c 3d 63 ca 09 be 3a 50 bc 3d
       0.035721976 0.076383345 -0.1345611 0.091949895
0002a0 c5 a0 1b 3e 56 2b 04 bd 25 e4 1a be cc 42 45 3b
       0.15198047 -0.03226789 -0.15126093 0.0030099628
0002b0 c0 34 25 bd f6 0a 7b 3d 27 9e c2 3d 9d 64 fe 3d
       -0.04033351 0.06128975 0.095028214 0.12421534
0002c0 d1 f1 0d 3e 98 2c 0a be e3 77 08 3e 34 1b a4 3d
       0.13861777 -0.13493574 0.13326983 0.08013001
0002d0 17 52 41 3d 6b 3b e7 bc 77 eb 07 be 7f 4b 4e 3d
       0.047197428 -0.028226575 -0.13273416 0.050364967
0002e0 95 c6 aa 3d 3c 60 d8 3d 3e 2f 3f 3d e8 86 4e bd
       0.08338658 0.1056523 0.046675913 -0.050421625
0002f0 cd b5 17 3d fc 4d f9 3a cb ce 1a be 9d ea 1b bd
       0.037038613 0.0019020434 -0.15117948 -0.03806554
000300 8b da 10 3d 76 0f 8f bd 6b 93 13 be 57 c2 13 3e
       0.03536467 -0.06985371 -0.14411704 0.14429604
000310 be 6d 3c 3d e2 18 c5 bd 1d 75 1c 3e 23 71 6d 3d
       0.046003096 -0.09623887 0.1527905 0.057969224
000320 92 5e fe 3d 9e 23 0b be da 74 30 bd db 5f d0 3d
       0.124203816 -0.13587806 -0.04308019 0.10174533
000330 66 4a d8 bd ef 06 bc 3d e2 af ff 3c 94 94 4e 3d
       -0.105610654 0.0918101 0.031211797 0.050434664
000340 c7 ca c4 3d 22 e3 24 bd 5a b6 f8 bd a5 60 f9 bd
       0.09608989 -0.040255673 -0.12144156 -0.121766366
000350 25 bf f5 bd 9e 14 77 bc 91 8d 17 3e e5 cc de 3b
       -0.119993486 -0.015080599 0.14800097 0.0067993277
000360 a3 3e 29 3d d9 8c b9 bd b0 dc d7 3d 87 92 f2 3d
       0.0413195 -0.09060068 0.1054014 0.11844354
000370 42 ae 5c 3d 8f 17 c6 3d 77 ab f8 3d d9 bc 1f 3e
       0.053877123 0.09672462 0.12142079 0.15599383
000380 b7 ce 49 3b ca 84 11 3e 12 3a d9 3d de 6f 22 bd
       0.0030793378 0.14210811 0.10606779 -0.039657466
000390 99 71 fe 3d 20 11 eb bd 4c d0 00 bd 76 b9 2a bc
       0.12424011 -0.11477876 -0.031448647 -0.010420194
0003a0 fd c6 e1 bd 69 8e 13 3e 3b 8a ef 3a b8 86 c1 bd
       -0.11024282 0.14409794 0.0018275449 -0.09449524
0003b0 80 24 b0 3d db de b7 ba b9 d5 e1 3d 15 ed 9d bc
       0.08600712 -0.0014028208 0.110270925 -0.019278089
0003c0 96 55 8f 3c a4 8e f3 bd 94 0f 28 3d fa a9 27 3d
       0.017496865 -0.11892441 0.04103048 0.040933587
0003d0 02 19 da 3d 5c ed 0b 3e 59 09 b4 bc 47 9e d6 bd
       0.10649301 0.13664764 -0.021977114 -0.10479408
0003e0 58 29 d0 bd db be 9b 3d 42 8a 14 3e 5b 11 be bd
       -0.10164136 0.07604762 0.14505866 -0.09280654
0003f0 d1 7f a8 3d 17 f1 fa 3d 5c 86 40 3d dd 4b 24 bc
       0.08227504 0.122530155 0.047003135 -0.010027853

bias_ih_l0 f4 [128]
000000 a8 ea 20 3d 94 5f 9a 3e 4c b0 c6 bc 61 e7 d6 3d
       0.039286286 0.30151045 -0.024253987 0.10493351
000010 51 f9 5f 3f cd d4 6a 3c 6c 2a a4 3e f6 25 2d 3d
       0.874898 0.014332962 0.32063615 0.04227253
000020 53 1f bb 3e 5d 0b 04 bf d7 23 dd bd 0c 2c c9 3d
       0.36547336 -0.5157984 -0.107978515 0.098228544
000030 cd d1 17 3f 6b ae 95 3e 33 24 dc bd 53 24 08 bd
       0.59304506 0.29234633 -0.10749092 -0.033237766
000040 c0 21 c3 3e 3b 40 14 3d 7a 1a f8 bd b5 d7 da be
       0.38111687 0.036194067 -0.12114425 -0.42742696
000050 4c b6 af 3e 85 fc a4 3d d3 2c c4 3e 48 88 5e 3d
       0.3431877 0.08055977 0.38315448 0.054329187
000060 bc e9 6d 3c 15 71 21 3f ff 1f 0c be 48 ea 85 3c
       0.014521059 0.63063174 -0.1368408 0.016347066
000070 0c 37 01 bf 14 3a 55 be 04 ca d5 3b 6f 1d 0e be
       -0.5047462 -0.20822936 0.0065243263 -0.13878416
000080 54 36 2d 3c 73 10 02 be 81 27 ec 3d 67 4e 0a be
       0.010572035 -0.12701587 0.11530972 -0.1350647
000090 7f 3b c1 bd a9 a0 81 ba 8f 01 27 bd 98 8d b6 bd
       -0.09435176 -0.0009889799 -0.04077297 -0.089137256
0000a0 f9 9e d3 bd a4 b3 b3 bd 27 f3 29 bd 85 81 38 bc
       -0.10333056 -0.08774498 -0.041491654 -0.011261349
0000b0 e7 51 14 be e0 95 cc bd 0f e1 ef 3d 51 61 a0 3d
       -0.14484368 -0.09989524 0.117128484 0.07831062
0000c0 4e 8a bc 3c 57 bd 9c bd 29 0f b4 bd e8 be f1 bd
       0.023015168 -0.07653301 -0.08791954 -0.118039906
0000d0 4d f3 a3 bd eb a6 30 bd 74 a1 b3 bd e7 12 1b be
       -0.0800539 -0.043127935 -0.08771029 -0.1514393
0000e0 4e 77 4f 3d d6 18 03 3e c6 2c d7 bc a1 60 13 3e
       0.050650887 0.12802443 -0.026266467 0.1439233
0000f0 05 ac 0f 3d 37 5a 95 3d e7 2f 22 3d 5b 6e a5 bd
       0.03507616 0.07292598 0.039596464 -0.08077689
000100 fc 1f 48 3e 0e a8 93 3e b1 a6 25 3d ec 6c 68 be
       0.19543451 0.28839153 0.040442172 -0.226978
000110 b0 0d 39 3f 5e c0 80 be 6d ef 82 3e 67 31 0f bd
       0.7228651 -0.25146765 0.25573292 -0.034959223
000120 6f 38 16 bf e2 89 89 3d 1d 49 38 3d 35 a4 f3 3d
       -0.5867986 0.06715752 0.0449916 0.118965544
000130 24 b0 b3 3c 36 45 ab bd c5 86 69 be bc 1b d7 bd
       0.021934576 -0.0836281 -0.22805317 -0.10503337
000140 6b 59 ed be d9 a7 2f 3e 3a 41 b2 bd 56 61 71 bf
       -0.46357283 0.17153873 -0.08703847 -0.9428915
000150 e7 6b a6 3d 55 2d 59 3d 31 cf ff bd 9b 6f dc 3d
       0.081260495 0.053021748 -0.124906905 0.107634746
000160 ba d2 bc bd 4e c2 39 3f dc d4 d2 3d f3 14 fa 3a
       -0.092198804 0.7256211 0.10294506 0.001907973
000170 5c 4e 28 3e b7 b1 6e bd 76 db e7 3d 3b 14 13 bc
       0.16436142 -0.05827495 0.11321156 -0.008976991
000180 4b 9d 98 be b6 01 7d 3e 0f 08 70 3d c6 5b aa be
       -0.29807505 0.24707684 0.058601435 -0.33273143
000190 82 60 c3 bd e6 95 a3 bd d9 c6 0f 3e 0b d5 94 bd
       -0.09539892 -0.07987575 0.14040698 -0.07267197
0001a0 b9 95 85 3e 58 8a ea be c7 a8 25 bd 94 24 98 bd
       0.26090792 -0.45808673 -0.04044416 -0.07428852
0001b0 6a 12 0b 3f da ab 6c 3d df 65 cc bd ba 26 87 be
       0.5432497 0.057781078 -0.09980368 -0.26396734
0001c0 43 51 58 3f 15 14 4c be 26 8b 0d 3f cd 35 91 3f
       0.84498996 -0.19929536 0.5529045 1.1344544
0001d0 ed e5 43 be e7 ab e1 3c 16 ca ad 3e d9 c1 98 bd
       -0.19130678 0.02754779 0.33943242 -0.074588485
0001e0 d4 3f c0 3c 3c a1 58 3f 3a 44 3f 3d 85 f8 66 3d
       0.023467936 0.84621024 0.046695925 0.05638935
0001f0 e9 02 cf be a2 44 c9 bd 2c ee a9 3d df 00 27 3d
       -0.40431908 -0.09827544 0.08297381 0.040772315

bias_hh_l0 f4 [128]
000000 ac 3a 1b be 91 07 2b 3e 1d 97 e2 3c c4 59 b4 3d
       -0.151591 0.16702105 0.027659947 0.08806184
000010 b6 db 74 3f 84 2b 0b 3e 5a 5e d8 3e b5 35 2f 3d
       0.9564775 0.13590819 0.42259485 0.04277583
000020 bb a2 ab 3e e5 f3 ea be cb 21 95 bd d6 67 22 3e
       0.3352259 -0.45889202 -0.07281836 0.15859923
000030 c8 9c e5 3e 0e ca a7 3c 54 39 b4 bd 1d 12 3b be
       0.44846177 0.02048209 -0.08799997 -0.18268628
000040 26 fd 09 3f 37 0e 62 bc 29 d9 85 bd d7 6e b2 be
       0.539019 -0.013797334 -0.06535561 -0.3485019
000050 49 03 aa 3e 1a 09 6a 3d e4 25 8d 3e 13 c1 27 be
       0.3320563 0.057137586 0.2756797 -0.16382246
000060 67 11 04 bb f2 70 2d 3f 42 19 9a be 28 58 af 3d
       -0.0020151974 0.67750466 -0.30097395 0.08561736
000070 b8 c8 e6 be 45 f8 78 3b 96 a3 d9 3d 23 b4 1e be
       -0.4507501 0.0037989777 0.10626905 -0.15498404
000080 db ce df bd f8 8c c4 3d 75 59 ef 3d 40 9e 03 bd
       -0.109281264 0.095972 0.116869844 -0.03213334
000090 d7 6c c0 3d a6 d7 09 3e 0b 18 3d bd f7 e9 71 3d
       0.093957596 0.1346117 -0.046165507 0.059061017
0000a0 36 5e 1f be bb 31 0b be bc ae 90 3d f8 6b 16 be
       -0.15563282 -0.1359319 0.07064578 -0.14689624
0000b0 53 f0 5a 3d b3 79 99 bd 14 2e 03 3c 55 ea db bd
       0.053451847 -0.074939154 0.008006591 -0.10738055
0000c0 49 8e 49 3d 49 3e bc bd a9 1b 93 bc 4e 8f b0 bc
       0.04920796 -0.091915675 -0.017957525 -0.021552708
0000d0 21 72 6d 3d 9d f1 b3 3d 6a ee d6 3c 4a d6 1f be
       0.05797017 0.087863185 0.026236732 -0.15609089
0000e0 32 9f 92 3c 51 2f 10 3d cc 41 ea bd 67 e2 80 bc
       0.017898176 0.035201374 -0.11438331 -0.015732957
0000f0 8a 8c 88 3d 16 d0 09 be 85 34 ae 3c 78 04 ca bd
       0.06667431 -0.13458285 0.021265278 -0.098641336
000100 24 fd bd 3e a3 bc 1e 3e 24 1a 65 bd 4a 84 78 be
       0.37107193 0.15501647 -0.055933133 -0.24269214
000110 b2 50 0d 3f cb 47 8c 3b 09 9a bb 3e b0 ea d1 bd
       0.55201256 0.0042810193 0.36640957 -0.10249841
000120 4e 48 ee be bb e7 a8 bd 90 62 3a 3d 62 a1 97 3e
       -0.4653954 -0.08247324 0.045504153 0.29615313
000130 14 81 a1 bd d6 a3 9b 3d b2 8f 68 bd 45 15 30 3d
       -0.07885948 0.075996086 -0.056777664 0.042989034
000140 b3 12 d4 be e5 b1 5d 3e 15 0f 54 bd ca ab 70 bf
       -0.41420516 0.21649893 -0.051772196 -0.9401213
000150 5e 62 bc 3c 90 d8 38 3e e0 a1 66 be a6 a3 80 3e
       0.022996124 0.18051362 -0.22522688 0.25124854
000160 a5 9b 93 bd 7e 01 2b 3f 93 a8 da 3c bc 9d 9d bc
       -0.07207421 0.6679915 0.02669171 -0.019240253
000170 a4 25 50 3e 01 25 05 bd d2 14 22 3e d8 74 2c be
       0.20326859 -0.032505993 0.15828255 -0.16841447
000180 08 0c 9c be eb 6e 62 3e b6 2c 99 bd 17 f0 6f be
       -0.3047793 0.22112624 -0.07479231 -0.23431431
000190 df a0 97 3c 8f 12 6a be e6 06 36 3e e6 80 39 bc
       0.018509327 -0.22858642 0.17776069 -0.011322236
0001a0 f5 9b 31 3e 09 25 e7 be cb e9 2c 3d fb 6e 10 bd
       0.17344649 -0.45145443 0.04221515 -0.03526209
0001b0 c8 38 10 3f a7 c8 04 3e 14 0b 0e be 61 06 10 be
       0.5633664 0.12967168 -0.13871413 -0.14064933
0001c0 a5 e6 2b 3f bc f8 bb 3d 2a 7b de 3e 47 b5 84 3f
       0.6714881 0.09178302 0.43453342 1.0367821
0001d0 dd cd 1b be 79 27 c4 3d e5 6c ec 3e 25 4c cd 3c
       -0.1521525 0.09577841 0.4617683 0.025060723
0001e0 1d 90 93 3d e5 0e 41 3f 31 da 5d 3e 68 3a 06 bd
       0.07205222 0.7541335 0.21665265 -0.032770544
0001f0 5c 39 9f be 45 65 f8 bc 18 2a 2b 3d 8f 76 30 3d
       -0.3109845 -0.030321727 0.04178819 0.043081816

weight f4 [1, 64]
000000 21 9f ee bf 3b 37 aa 3f 9d 3f b6 3f 0a f2 0f 3a
       -1.8642312 1.3298105 1.4238163 0.0005491084
000010 4a b3 1e 3f 69 bd 71 3f db de ac be 3e 4f 92 bf
       0.61992323 0.9442964 -0.33763775 -1.1430433
000020 17 f2 9a bf c0 dd 2a bf fc 08 a3 bf 1a 0b 0d c0
       -1.210513 -0.66744614 -1.2737117 -2.2038026
000030 79 7f c3 3e 54 39 01 3f ef 22 d0 3f 38 7a fb bf
       0.3818319 0.504781 1.6260661 -1.9646673
000040 0c e0 b8 bf d5 37 fa be 66 81 06 40 b5 41 b6 3f
       -1.4443374 -0.4887072 2.1016479 1.4238802
000050 d4 1c a6 bf c8 dc 09 3f 9c f5 06 3f bb 2f 5a bf
       -1.2977548 0.5385251 0.5271852 -0.8522908
000060 b6 de f8 bf f7 4a 3a 3f 99 be 59 bf a6 34 28 3f
       -1.9442966 0.7277064 -0.85056454 0.65705335
000070 5d cd 1b c0 71 cf 02 bf a1 36 a0 bf 05 de f7 3f
       -2.4344094 -0.5109778 -1.2516671 1.936463
000080 57 97 cc bf 02 09 b4 3e 0a 2d 06 bf cf 65 22 3f
       -1.5983685 0.35163122 -0.52412474 0.634366
000090 7e 0d 74 3f 80 cf e5 3e a7 bf 34 c0 76 bc 0c bf
       0.9533309 0.44884872 -2.8241975 -0.5497507
0000a0 94 aa f0 3f 56 3c 10 40 6e 56 05 3c 39 73 16 bf
       1.8802056 2.2536826 0.008138282 -0.58769566
0000b0 f1 de 25 bf 58 3c dc be 89 b1 18 3f 17 c9 a0 be
       -0.64793307 -0.4301479 0.596459 -0.3140342
0000c0 ac ef cc bf 5a 9f 9e 3e 93 d1 0b c0 46 c4 2c c0
       -1.6010642 0.3098095 -2.1846664 -2.6994796
0000d0 38 9e e5 3e c7 55 2a bf bf 09 0b bf 66 41 04 bf
       0.44847274 -0.66537136 -0.54311746 -0.5166229
0000e0 e8 52 cc bd 91 b4 42 c0 58 87 76 bf 25 6d 94 3d
       -0.099767506 -3.042271 -0.9630027 0.0724738
0000f0 66 52 f3 3f 94 13 03 bd 50 e9 f9 3d 37 ad f9 be
       1.9009521 -0.032001093 0.12202704 -0.48764965
